…
            remora model train remora_train_chunks.npz \
            --model remora/models/Conv_w_ref.py \
            --device 0 \
            --output-path remora_train_results

        # [22:41:00] Seed selected is 844325128
        # [22:41:03] Loading dataset from Remora file
        # [22:41:03] Loaded data info from file:
        #           base_pred : False
        #           mod_bases : Y
        #  kmer_context_bases : (6, 6)
        #       chunk_context : (50, 50)
        #               motif : ('A', 0)

        # [22:41:03] Loading model
        # [22:41:03] Model structure:
        # network(
        #   (sig_conv1): Conv1d(1, 4, kernel_size=(11,), stride=(1,))
        #   (sig_conv2): Conv1d(4, 16, kernel_size=(11,), stride=(1,))
        #   (sig_conv3): Conv1d(16, 64, kernel_size=(9,), stride=(3,))
        #   (seq_conv1): Conv1d(52, 16, kernel_size=(11,), stride=(1,))
        #   (seq_conv2): Conv1d(16, 32, kernel_size=(11,), stride=(1,))
        #   (seq_conv3): Conv1d(32, 64, kernel_size=(9,), stride=(3,))
        #   (merge_conv1): Conv1d(128, 64, kernel_size=(5,), stride=(1,))
        #   (merge_conv2): Conv1d(64, 64, kernel_size=(5,), stride=(1,))
        #   (merge_conv3): Conv1d(64, 64, kernel_size=(3,), stride=(2,))
        #   (merge_conv4): Conv1d(64, 64, kernel_size=(3,), stride=(2,))
        #   (fc): Linear(in_features=192, out_features=2, bias=True)
        #   (sig_bn1): BatchNorm1d(4, eps=1e-05, momentum=0.1, affine=True, track_running_stats=True)
        #   (sig_bn2): BatchNorm1d(16, eps=1e-05, momentum=0.1, affine=True, track_running_stats=True)
        #   (sig_bn3): BatchNorm1d(64, eps=1e-05, momentum=0.1, affine=True, track_running_stats=True)
        #   (seq_bn1): BatchNorm1d(16, eps=1e-05, momentum=0.1, affine=True, track_running_stats=True)
        #   (seq_bn2): BatchNorm1d(32, eps=1e-05, momentum=0.1, affine=True, track_running_stats=True)
        #   (seq_bn3): BatchNorm1d(64, eps=1e-05, momentum=0.1, affine=True, track_running_stats=True)
        #   (merge_bn1): BatchNorm1d(64, eps=1e-05, momentum=0.1, affine=True, track_running_stats=True)
        #   (merge_bn2): BatchNorm1d(64, eps=1e-05, momentum=0.1, affine=True, track_running_stats=True)
        #   (merge_bn3): BatchNorm1d(64, eps=1e-05, momentum=0.1, affine=True, track_running_stats=True)
        #   (merge_bn4): BatchNorm1d(64, eps=1e-05, momentum=0.1, affine=True, track_running_stats=True)
        # )
        # [22:41:03]  Params (k) 130.94 | MACs (M) 3303.18
        # [22:41:03] Preparing training settings
        # [22:41:10] Label distribution: Counter({0: 140806, 1: 85473})
        # [22:41:10] Running initial validation
        # [22:41:10] Start training
        # Epochs:  22%|███▌            | 11/50 [03:54<13:50, 21.30s/it, acc_train=0.8086, acc_val=0.7533, loss_train=0.414223, loss_val=0.504485]
…
